Model/disease_model.tflite (tflite, 19788 bytes, 6 tensors)

sequential/dense_1/BiasAdd/ReadVariableOp f4 [32]
0	0x3ded64ca	0.115914896
1	0x3dd4e6f1	0.10395611
2	0x3c98cef3	0.018653369
3	0x3de56a83	0.11201956
4	0x3d501fa9	0.050811443
5	0x3db8b7c0	0.090194225
6	0x3dc00c8e	0.093773946
7	0x3d28acfd	0.0411806
8	0x3d1f0852	0.038826294
9	0x3cab8e56	0.020941895
10	0x3da2a01a	0.07940693
11	0x3d487294	0.048937395
12	0x3d275578	0.040852994
13	0x3da8c737	0.08241122
14	0x3d21b335	0.039477546
15	0x3d184319	0.037173364
16	0x3b4b575c	0.0031027412
17	0x3da5d031	0.0809635
18	0x3cea8a10	0.028630286
19	0x3da605fb	0.081066094
20	0x3d8dd9c8	0.06926304
21	0x3d975de5	0.07390956
22	0x3d181c59	0.03713641
23	0x3da45b0a	0.08025177
24	0x3d8eed17	0.06978815
25	0x3c87e087	0.016586555
26	0x3bf6985f	0.0075254883
27	0xbcc3811d	-0.023865277
28	0xba29ff8c	-0.0006484918
29	0x3d8da0d9	0.06915445
30	0x3ce8adca	0.028403182
31	0x3a9c61e7	0.0011931033

sequential/dense_2/BiasAdd/ReadVariableOp f4 [40]
0	0xbb7ded32	-0.0038746116
1	0xbcd97b89	-0.026548164
2	0xbe6ced30	-0.23137355
3	0xbc664af8	-0.01405596
4	0xbcbd4f87	-0.02310921
5	0xbbf0823b	-0.0073397434
6	0xbe703a35	-0.23459704
7	0x3b4eb524	0.0031541074
8	0xbd814d61	-0.06313587
9	0xbbb77357	-0.0055984664
10	0x3ce301c9	0.027710812
11	0xbe5c9ac2	-0.2154341
12	0xbcb3b92f	-0.021938888
13	0xbd94dbb2	-0.07268466
14	0xbd04874b	-0.032355588
15	0xbc244ee7	-0.010028577
16	0xbccbab33	-0.024861908
17	0xbd24b539	-0.04021189
18	0xbc929538	-0.017893419
19	0x3bc0f549	0.0058886153
20	0x3d3cd956	0.046105705
21	0xbe6d846b	-0.23195045
22	0xbb6bdd27	-0.0035989971
23	0x3ccf2063	0.025283998
24	0xbc8d3ddb	-0.017241409
25	0xbe7a356c	-0.24434441
26	0x3ba0e484	0.0049100537
27	0xbbd05c05	-0.006358626
28	0xbd17fd83	-0.037107002
29	0x3cda1772	0.026622508
30	0x3c90ebcb	0.01769056
31	0xbe60b532	-0.2194412
32	0xbd861446	-0.065468356
33	0xbd4ad937	-0.04952356
34	0xbe73e204	-0.23816687
35	0x3c7371f0	0.014858708
36	0x3b6971bc	0.003562077
37	0x3c96d615	0.01841263
38	0x3ae07bfb	0.0017126793
39	0xbe58765c	-0.211389

sequential/dense/BiasAdd/ReadVariableOp f4 [64]
0	0x3d905e7c	0.070492715
1	0x3d359972	0.04433579
2	0x00000000	0.0
3	0x3d9c7e92	0.07641329
4	0x3e2bd2ea	0.16779676
5	0x3d6fa111	0.058503214
6	0x3dd884aa	0.10572179
7	0x3def9289	0.11697871
8	0xbd29a10a	-0.041413344
9	0x3e150d6c	0.14555901
10	0x3da0ac8b	0.0784541
11	0x3d768fff	0.06019592
12	0x3e1721da	0.14759007
13	0x3dde5bc5	0.108573474
14	0x3e58306b	0.2111222
15	0x3da86142	0.082216755
16	0x3e1ba130	0.15198207
17	0x3d35cf01	0.044386867
18	0x3e0d165d	0.13778062
19	0x3e1d9fd6	0.15393004
20	0x3dac0046	0.0839849
21	0x3d85915d	0.065218665
22	0x3da58dda	0.08083697
23	0x3dbe4f45	0.09292463
24	0xbbe9afda	-0.007131559
25	0x3df39147	0.11892944
26	0x3df60910	0.12013447
27	0x3e398e1a	0.18120614
28	0x3de76eca	0.11300428
29	0x3dd83d87	0.105586104
30	0x3d9eb8cd	0.07750092
31	0x3dd140a7	0.102174096
32	0x3dd49fca	0.1038204
33	0x3e2f0406	0.17091379
34	0x3e56feb1	0.20995595
35	0x3dcfedfc	0.10152814
36	0x3e49b240	0.19696903
37	0x3e123bf6	0.14280686
38	0x3e01363f	0.1261835
39	0x3e043502	0.12910846
40	0x3d55b7ee	0.052177362
41	0x3e294876	0.16531548
42	0x3db8b45a	0.09018774
43	0x3de12d82	0.10995008
44	0x3d1f991e	0.038964383
45	0x3db76d23	0.08956363
46	0x3dbca417	0.09210985
47	0x3e0f2f28	0.13982832
48	0x3dbbb645	0.091656245
49	0x3c9f7f9e	0.019470032
50	0x3e44f886	0.19235429
51	0x3e195d2b	0.14976947
52	0x3e166622	0.14687398
53	0x3d792ba8	0.06083265
54	0x3deecc3f	0.116600506
55	0x3d96c072	0.07360925
56	0x3e4070af	0.18792985
57	0x3e121fe1	0.14269973
58	0x3e7c1464	0.24617153
59	0x3de603db	0.11231204
60	0x3e0c3485	0.1369191
61	0x3d78cd41	0.06074262
62	0x3d0ced89	0.03440622
63	0x3dec0784	0.11524871

sequential/dense/MatMul f4 [64, 15]
0	0x3daaf11c	0.08346769
1	0xbe34c943	-0.176549
2	0x3d432dcc	0.047651097
3	0xbea836a4	-0.32854187
4	0x3e1290f9	0.14313115
5	0xbdca62ba	-0.09882112
6	0xbe7640b9	-0.24048127
7	0x3dd4366c	0.10361943
8	0xbe347245	-0.17621715
9	0x3e8d7816	0.2763068
10	0xbe556ed3	-0.20843057
11	0xbe06e4dc	-0.1317324
12	0xbdde913f	-0.10867547
13	0x3e4388ac	0.19095105
14	0x3e8366c1	0.25664333
15	0xbddec377	-0.10877126
16	0x3e3b4aa9	0.182902
17	0x3eb2cb04	0.34920514
18	0x3e159ea2	0.14611295
19	0xbed6e5b8	-0.41972136
20	0x3eb0ed68	0.34556127
21	0xbdb234da	-0.08701487
22	0x3e3e8ee1	0.18609191
23	0x3e652533	0.22377472
24	0xbe349b3e	-0.17637345
25	0xbe876267	-0.26442263
26	0xbe264c96	-0.16240153
27	0x3e71a159	0.23596705
28	0xbec4b21c	-0.38417137
29	0x3d693a88	0.056940585
30	0x3d8b3c14	0.06798568
31	0xbe332898	-0.17495954
32	0xbcb67110	-0.02227071
33	0xbdc49878	-0.095993936
34	0xbe86b023	-0.26306257
35	0x3e436c40	0.19084263
36	0xbd16acb4	-0.036785796
37	0xbe4455cf	-0.19173358
38	0xbe62dcd8	-0.22154558
39	0xbd5235f4	-0.051320985
40	0xbe8222a3	-0.2541705
41	0xbd25eab0	-0.04050702
42	0xbde7ec4e	-0.113243684
43	0xbdef1b3e	-0.11675118
44	0x3daf4e8c	0.085599035
45	0xbd737247	-0.059435155
46	0x3eb0039b	0.3437775
47	0xbeb66fb5	-0.356321
48	0x3e847c7e	0.2587623
49	0xbcd860da	-0.02641337
50	0x3ea44f0b	0.32091555
51	0xbe38627f	-0.18006323
52	0xbc1af0b5	-0.009456803
53	0x3ee9c1d4	0.45655692
54	0x3c8c1376	0.017099123
55	0x3d09ae71	0.033613626
56	0x3d96f3e5	0.07370738
57	0x3e86c32d	0.26320782
58	0x3d4a8683	0.049444687
59	0x3e88e8ef	0.26740214
60	0xbd94c90b	-0.072649084
61	0x3ed4c4d2	0.41556412
62	0x3eba395f	0.36371896
63	0xbe9c63cc	-0.3054489
64	0x3ebe04ae	0.37112945
65	0x3d1eb1da	0.03874383
66	0xbe190642	-0.14943793
67	0xbdaf55df	-0.085613005
68	0x3ebd8f5e	0.37023443
69	0x3ec39920	0.38202763
70	0x3eab4c16	0.33456486
71	0x3ed934fd	0.4242324
72	0x3cba735b	0.022760084
73	0xbe963df0	-0.2934413
74	0x3ca13320	0.019677699
75	0x3e50cab2	0.20389822
76	0x3e6f8092	0.2338889
77	0x3defbe53	0.11706223
78	0x3d45d82d	0.048301864
79	0xbe855d56	-0.26047772
80	0xbe97b8ab	-0.29633078
81	0x3eb3e9a7	0.351392
82	0xbebabf92	-0.36474282
83	0x3e82a122	0.2551356
84	0x3ed939a8	0.424268
85	0x3b60d3b0	0.0034305863
86	0xbd5ca7af	-0.053870853
87	0xbeff972d	-0.49920025
88	0x3dce04d1	0.100595124
89	0x3e7a6aa6	0.24454746
90	0x3e54f350	0.20795941
91	0x3cf5c91d	0.030003125
92	0x3ed5d193	0.41761455
93	0x3dd742a5	0.10510758
94	0x3dab1827	0.08354216
95	0x3e8fa37c	0.28054416
96	0xbe6f79dd	-0.23386331
97	0xbe87befb	-0.26512894
98	0x3ea023be	0.3127727
99	0x3e95b6e0	0.29241085
100	0x3bb216b1	0.005434834
101	0x3e870e1b	0.2637795
102	0xbd88f421	-0.06687189
103	0xbd0214a5	-0.03175797
104	0x3cbba210	0.022904426
105	0xbdd31b89	-0.10307986
106	0xbe81606b	-0.25268874
107	0x3ee92adb	0.4554051
108	0x3e6dfe3e	0.23241517
109	0xbdcf5b1d	-0.101248
110	0xbd7eb719	-0.062186334
111	0x3dbd1f8d	0.092345335
112	0x3cfd067e	0.030886885
113	0xbee2c0f1	-0.44287828
114	0x3ec145a7	0.37748453
115	0x3de68c93	0.11257281
116	0x3d9f859a	0.07789154
117	0xbda1595b	-0.07878371
118	0xbece0ae2	-0.40242678
119	0xbdf1e330	-0.11810911
120	0x3dd44a53	0.10365739
121	0x3dc98333	0.098394774
122	0x3dcebe49	0.10094888
123	0xbe84a81e	-0.25909513
124	0xbe8694c3	-0.2628537
125	0xbe8fa809	-0.28057888
126	0x3e8e9368	0.27846837
127	0x3d31d12e	0.04341238
128	0x3d429c5f	0.04751241
129	0xbe5a6acd	-0.21329804
130	0xbc7130cc	-0.014721107
131	0xbe50283e	-0.20327851
132	0xbe8a3f73	-0.27001533
133	0x3e210803	0.15725712
134	0xbdb17b96	-0.0866615
135	0x3ecba660	0.39775372
136	0x3e1a2caf	0.15056108
137	0x3e24d9a8	0.16098654
138	0xbe612ab7	-0.2198895
139	0x3ec62bcb	0.38705286
140	0xbe8564d6	-0.26053494
141	0x3e5987de	0.21243235
142	0x3e5f5bba	0.21812335
143	0xbe9f638d	-0.3113064
144	0xbe62cad6	-0.22147688
145	0xbdb7c9a3	-0.08974006
146	0x3e82d823	0.25555524
147	0x3e9c46ba	0.3052271
148	0xbe831873	-0.2560459
149	0xbd8948a4	-0.06703308
150	0x3e600bed	0.2187955
151	0xbe892eb9	-0.2679346
152	0x3eaa93e1	0.33315948
153	0x3e54a981	0.20767786
154	0x3e2a696f	0.16641782
155	0xbd9dab53	-0.07698693
156	0xbdc79989	-0.097460814
157	0x3e4b898d	0.1987669
158	0xbedfc096	-0.4370162
159	0x3cbd4fc7	0.02310933
160	0xbdb974d5	-0.09055487
161	0xbded3916	-0.11583154
162	0xbe171b61	-0.14756538
163	0x3eb3c845	0.3511373
164	0xbe26c134	-0.16284639
165	0x3e02473f	0.1272249
166	0xbe8541b1	-0.2602668
167	0xbd581fd5	-0.052764732
168	0x3dd78e45	0.10525183
169	0x3dcfdf4b	0.10150012
170	0x3ec578f0	0.3856883
171	0x3ed45d64	0.414775
172	0xbe8666ef	-0.26250407
173	0xbdfe4400	-0.12415314
174	0xbc901a6a	-0.01759072
175	0xbf03bfd4	-0.5146458
176	0xbd98b86b	-0.0745705
177	0x3efe3cbe	0.49655718
178	0xbbcb622a	-0.0062067704
179	0xbe66b648	-0.22530472
180	0x3d9051be	0.07046841
181	0xbe6c5c64	-0.23082119
182	0x3d33879d	0.043830503
183	0x3e4a30b8	0.19745147
184	0xbe1b376e	-0.15157863
185	0xbedcb944	-0.43110096
186	0x3ed88dad	0.4229559
187	0x3e9d1cab	0.30685934
188	0xbe2649c6	-0.1623908
189	0x3e91abc4	0.2845136
190	0xbd143d9f	-0.03619158
191	0x3e77c1cc	0.24195021
192	0x3df7647d	0.120797135
193	0x3e8c29ab	0.2737554
194	0x3de3084c	0.11085567
195	0x3e13e54b	0.14442937
196	0xbeb6513c	-0.35608852
197	0xbe60ec73	-0.21965198
198	0x3eb6a759	0.3567455
199	0x3ec6fb5a	0.3886364
200	0x3eab821a	0.33497697
201	0x3ea399e2	0.3195334
202	0x3e5e5f7f	0.21716116
203	0xbdb0793b	-0.08616873
204	0x3e618da0	0.22026682
205	0xbbc98f31	-0.006151103
206	0x3e81ca5c	0.253497
207	0x3dd36ac1	0.10323096
208	0xbebbc13f	-0.36670873
209	0xbde6bf80	-0.112669945
210	0xbeb9e775	-0.363094
211	0xbe5f456d	-0.21803828
212	0x3ecc2188	0.39869332
213	0x3d214d5c	0.039380416
214	0x3df662f4	0.120305926
215	0x3d9f403d	0.07775924
216	0x3e3575e0	0.17720747
217	0xbc9e2ba8	-0.019307926
218	0x3e91f553	0.2850748
219	0x3ead2354	0.33816016
220	0x3ec55af7	0.38545963
221	0xbf033513	-0.5125286
222	0x3ee6fb39	0.45113543
223	0xbe06d00c	-0.13165301
224	0xbdbd9648	-0.092571795
225	0x3ea0afb8	0.31384063
226	0x3eb43d6f	0.3520312
227	0x3e341130	0.17584682
228	0xbe6928a9	-0.22769417
229	0x3e2801d5	0.16406949
230	0xbe0ecb4f	-0.13944744
231	0x3e482bb1	0.19547917
232	0x3ed1ee68	0.41002202
233	0xbddd5555	-0.108072914
234	0xbe00fda4	-0.12596756
235	0x3e97bce6	0.29636306
236	0x3e6ce15a	0.2313284
237	0x3dbd0240	0.09228945
238	0x3e8ecc47	0.27890226
239	0xbe3e88bf	-0.18606852
240	0xbc7f2ddb	-0.015574898
241	0x3dc2c554	0.095102936
242	0x3cdb81b9	0.026795255
243	0x3e78e2ab	0.24305217
244	0xbe8ba973	-0.27277717
245	0xbe3159ff	-0.17319487
246	0x3ebad6ac	0.36491907
247	0x3e8b8d79	0.27256373
248	0x3e9b1821	0.30291846
249	0x3ec80a3a	0.39070302
250	0xbcfbcee2	-0.030738298
251	0x3dba756e	0.09104429
252	0x3e8e92ac	0.27846277
253	0xbe96ccef	-0.29453227
254	0x3e431c2c	0.19053715
255	0x3e4d60ab	0.20056407

sequential/dense_1/MatMul f4 [32, 64]
0	0x3e4ccf35	0.20000918
1	0xbdd64181	-0.10461713
2	0x3e0a75cc	0.13521498
3	0xbe87d299	-0.2652786
4	0x3d0f42d7	0.034975853
5	0x3f103a05	0.5633853
6	0x3e441431	0.19148327
7	0x3f051aa7	0.51993793
8	0x3e40c94a	0.18826786
9	0x3e51afcb	0.20477216
10	0x3eb21df0	0.34788465
11	0xbe28c10f	-0.16479896
12	0x3ed0bc30	0.40768576
13	0xbe53f8cd	-0.20700379
14	0x3f07e369	0.53081375
15	0xbd4d602e	-0.050140552
16	0xbe286349	-0.16444124
17	0xbe5ea5c0	-0.21742916
18	0xbd4085cf	-0.04700261
19	0x3e1f697c	0.15567583
20	0x3ef7d8d9	0.4840763
21	0x3e015abb	0.12632267
22	0x3dfe9e7a	0.12432571
23	0x3c907f55	0.017638842
24	0xbd9547e7	-0.07289105
25	0x3cefd5d5	0.029276768
26	0xbeaf8b6b	-0.34286055
27	0xb9a2a7f8	-0.00031024194
28	0x3e149b7c	0.14512438
29	0x3e33c030	0.17553782
30	0x3e0c63b5	0.1370991
31	0xbd8e2c3d	-0.069420315
32	0x3ec6af78	0.38805747
33	0x3e11d1be	0.14240167
34	0x3e66fc8f	0.22557281
35	0x3d508c24	0.0509149
36	0x3ee5176d	0.44744435
37	0xbeac6443	-0.33670244
38	0x3e96b3fc	0.29434192
39	0x3e5a48a9	0.2131678
40	0x3e67b08d	0.22625943
41	0x3e79cd41	0.24394704
42	0x3e98e87a	0.29864866
43	0xbe68137e	-0.22663686
44	0x3c22131f	0.009892254
45	0xbe20df0f	-0.1571009
46	0x3ec33f73	0.38134345
47	0x3e657287	0.2240697
48	0xbcac95d2	-0.021067534
49	0xbdca95b2	-0.09891833
50	0x3eaaec9c	0.33383644
51	0xbe5d123b	-0.21588986
52	0x3e92d311	0.28676656
53	0x3e1925bf	0.14955805
54	0xbd07edc7	-0.033185747
55	0xbe1725b0	-0.1476047
56	0x3d2d2dea	0.042280115
57	0x3e3742bf	0.17896555
58	0xbe69fed2	-0.22851112
59	0xbbc2493b	-0.00592914
60	0x3ea4e30f	0.32204482
61	0xbe2cd57f	-0.16878317
62	0x3e0cbe8a	0.1374456
63	0x3df09ef3	0.11749067
64	0x3ea9ae44	0.33140767
65	0x3e3f5229	0.18683685
66	0x3c0bad80	0.008525252
67	0xbe66cfd9	-0.22540225
68	0x3efd46e8	0.4946816
69	0x3e9b342b	0.30313239
70	0x3ea8faef	0.33003947
71	0x3e68da00	0.2273941
72	0xbe7ad804	-0.24496466
73	0x3e3ebe1c	0.18627208
74	0xbbe8024a	-0.007080351
75	0xbee67efd	-0.4501876
76	0xbd117c99	-0.035519216
77	0x3d912c3b	0.070885144
78	0x3f0019e5	0.5003951
79	0x3e3e9265	0.18610533
80	0x3ee18873	0.44049415
81	0x3e8e46c4	0.27788365
82	0x3ce36b7b	0.027761212
83	0xbde4108f	-0.11135971
84	0x3e9e5ba6	0.30929297
85	0x3c271e36	0.010200074
86	0x3dfc79ca	0.12327917
87	0x3eaaf5c7	0.33390638
88	0x3de29117	0.1106283
89	0xbe3a7596	-0.18208918
90	0x3ee32aa6	0.44368476
91	0xbea232cc	-0.3167938
92	0xbe9c0d95	-0.30479112
93	0xbe8b2f23	-0.271844
94	0xbe3e3008	-0.1857301
95	0x3eab87f5	0.33502164
96	0x3e7ebb7d	0.24876209
97	0xbea4b76f	-0.321712
98	0xbe709f86	-0.23498353
99	0xbe263db8	-0.16234481
100	0x3e2aef16	0.16692767
101	0x3dda7c00	0.106681824
102	0xbd2773f0	-0.04088205
103	0xbe8329c9	-0.25617817
104	0x3e470784	0.1943646
105	0x3ebfdad1	0.3747163
106	0xbda4e70c	-0.08051881
107	0x3e810461	0.25198653
108	0xbe73641c	-0.23768657
109	0x3c9bc2c5	0.019013772
110	0x3e8602fa	0.26174146
111	0xbc97cf87	-0.018531574
112	0xbe318521	-0.17335941
113	0x3e6f86cb	0.23391263
114	0x3e6f6373	0.2337778
115	0x3c426c85	0.011866693
116	0x3e1937f3	0.14962749
117	0xbdc686cd	-0.0969368
118	0xbbf38ec1	-0.007432789
119	0xbe96e2bc	-0.2946986
120	0x3d9591a7	0.073031716
121	0xbdf8e194	-0.121524006
122	0x3ee6fe70	0.45115995
123	0x3d7bf170	0.06150955
124	0xbe8fc44f	-0.2807946
125	0xbea04b66	-0.31307524
126	0xbe0e9e61	-0.13927604
127	0xbea4e686	-0.32207125
128	0xbb1fde38	-0.0024393927
129	0x3e9aab4f	0.30208823
130	0x3ce3b220	0.027794898
131	0x3ee91943	0.45527086
132	0x3e922136	0.28540963
133	0x3e1b71f8	0.15180194
134	0x3d4d7a19	0.05016527
135	0xbea309bd	-0.31843367
136	0x3c30f700	0.010801077
137	0xbdd10b5c	-0.10207245
138	0xbda91467	-0.082558446
139	0xbe63532a	-0.22199693
140	0xbe67e785	-0.22646911
141	0xbd15fe50	-0.036619484
142	0xbb09937c	-0.0020992449
143	0x3e1663d7	0.14686523
144	0x3e06cace	0.13163301
145	0xbcfc06ab	-0.030764898
146	0x3ea282ff	0.31740567
147	0xbe112687	-0.14174853
148	0xbe716095	-0.23572
149	0x3e53a538	0.20668495
150	0x3e030e8e	0.12798521
151	0x3ea25da0	0.31712055
152	0x3e5e016c	0.2168023
153	0xbd2c3e2a	-0.04205147
154	0x3e17d046	0.14825544
155	0xbd2b8900	-0.0418787
156	0xbe657f55	-0.22411855
157	0x3c9e4680	0.019320726
158	0xbe83e4d7	-0.25760528
159	0x3e5756ab	0.21029155
160	0xbec86ba6	-0.3914463
161	0x3c9b6bdf	0.018972335
162	0x3c6acee1	0.01433155
163	0x3c3b6e34	0.011439849
164	0xbe86a9b6	-0.26301354
165	0x3db7ccca	0.08974607
166	0x3c3eac9d	0.011637834
167	0xbe82d923	-0.25556287
168	0xbcd40ef8	-0.025886044
169	0x3ed62f90	0.41833162
170	0x3dfcde77	0.12347119
171	0x3e437cbd	0.19090553
172	0x3dfebd5f	0.124384634
173	0x3dc53e34	0.09631005
174	0x3bf630bb	0.0075131333
175	0x3e2576f5	0.1615866
176	0xbd6e7d94	-0.05822523
177	0x3d893300	0.066991806
178	0x3e5142d7	0.20435654
179	0x3e7dc3e5	0.24781759
180	0x3e4c2e40	0.19939518
181	0x3d52f878	0.05150649
182	0xbd0093a5	-0.031390805
183	0x3c0f0b62	0.008730741
184	0xbe0948fd	-0.13406749
185	0x3d899936	0.06718676
186	0x3ea9a8c3	0.33136567
187	0x3e04f602	0.1298447
188	0xbd56fa8d	-0.052485038
189	0x3e9e8e9e	0.30968183
190	0x3ead4e32	0.3384872
191	0x3e86e693	0.2634779
192	0x3e2f2adf	0.17106198
193	0x3e2b501f	0.16729783
194	0xbe49b558	-0.19698083
195	0x3b9e5cb6	0.0048328293
196	0xbeb61f94	-0.35570967
197	0xbee8633e	-0.45388216
198	0xbe6abe6c	-0.22924203
199	0x3d801345	0.06253675
200	0xbdb68c83	-0.08913519
201	0x3e5db138	0.21649635
202	0x3e874803	0.26422128
203	0x3f04a695	0.51816684
204	0x3e1c1be4	0.15245014
205	0x3ed39fd4	0.41332877
206	0x3e56a7d8	0.20962465
207	0x3e405211	0.18781306
208	0x3bfbbe87	0.0076826247
209	0xbec5faf9	-0.3866804
210	0x3db4a271	0.08820046
211	0x3e8533de	0.26016134
212	0xbe03cfe1	-0.12872268
213	0x3e638ffa	0.22222891
214	0xbe82e171	-0.25562623
215	0x3dc4df89	0.096129484
216	0x3cacb382	0.02108169
217	0xbe526160	-0.20544958
218	0x3bb77523	0.0055986806
219	0x3eb78dfd	0.35850516
220	0xbcf01f1d	-0.029311711
221	0x3de8080b	0.11329659
222	0x3deb62d4	0.11493459
223	0x3e9fc5fc	0.31205738
224	0xbe028ac1	-0.12748243
225	0xbdb06876	-0.08613674
226	0x3e786312	0.24256542
227	0x3ea1b314	0.31581938
228	0x3e83dbe2	0.25753695
229	0x3f00df61	0.5034085
230	0x3efc24e9	0.4924691
231	0x3e5931e3	0.21210437
232	0x3e3f4512	0.18678692
233	0x3d2779fd	0.04088782
234	0xbe54408b	-0.20727746
235	0xbe4caabc	-0.19987005
236	0xbe44ed0c	-0.19231051
237	0x3cd2e824	0.025745459
238	0x3cf7ce06	0.030249607
239	0xbe8860df	-0.26636407
240	0xbc93be61	-0.018035116
241	0x3e952473	0.2912937
242	0xbeda44f0	-0.4263072
243	0x3ed050b8	0.40686584
244	0x3e798cf6	0.24370179
245	0x3e1799fc	0.14804834
246	0xbd87e1c7	-0.066348605
247	0xbdcb765a	-0.09934683
248	0x3ec552d9	0.3853977
249	0x3ddb7507	0.107156806
250	0x3d9b0a71	0.07570351
251	0x3e9b8ad8	0.30379367
252	0x3dbf669b	0.09345742
253	0xbe7c0f50	-0.24615216
254	0x3e26db93	0.16294698
255	0x3d9a86ab	0.07545217

sequential/dense_2/MatMul f4 [40, 32]
0	0xbeacd437	-0.33755657
1	0x3e854ed1	0.26036695
2	0x3e70b792	0.23507527
3	0xbf129fe4	-0.57275224
4	0x3b44c7c9	0.0030026308
5	0x3dff0ede	0.124540076
6	0xbf794e74	-0.97385335
7	0x3e729ed6	0.23693404
8	0xbdb387b7	-0.0876612
9	0xbf1437e1	-0.57897764
10	0x3e4aa5a2	0.19789746
11	0xbec366e3	-0.38164434
12	0xbea63eff	-0.32469937
13	0x3d067cf1	0.032833997
14	0xbeaa42b1	-0.33254007
15	0x3eacbbce	0.33737034
16	0xbdc1df32	-0.09466399
17	0xbf464d26	-0.7746147
18	0xbec54b6e	-0.3853411
19	0xbf08cfc1	-0.5344201
20	0x3e22672e	0.15859672
21	0x3ea15834	0.31512606
22	0xbed21406	-0.41030902
23	0xbe41f977	-0.1894282
24	0x3e0e1426	0.13874874
25	0x3de2810e	0.110597715
26	0xbeeaf4bf	-0.4588985
27	0x3cacd815	0.02109913
28	0xbe7c12f2	-0.24616602
29	0xbe4a882b	-0.19778506
30	0x3e55331d	0.2082028
31	0x3c25e2c7	0.010124869
32	0x3dc9d1e7	0.09854489
33	0xbe314998	-0.1731323
34	0x3d6da767	0.058020975
35	0x3cd0eb5a	0.02550285
36	0xbe4935e7	-0.19649468
37	0xbede1144	-0.43372548
38	0x3e4c7e9c	0.19970173
39	0x3e58dd10	0.21178079
40	0xbf82d98f	-1.0222644
41	0x3eb28660	0.34868145
42	0x3e0f3ec9	0.13988794
43	0xbe56dc0c	-0.20982379
44	0xbf03492d	-0.5128353
45	0x3e3fdee4	0.1873737
46	0xbe7fe62c	-0.24990147
47	0xbec2059f	-0.37894914
48	0xbeacac0f	-0.3372502
49	0x3e476d9e	0.1947541
50	0xbf4da7f9	-0.8033443
51	0xbee869d2	-0.45393234
52	0x3dfc7ff8	0.123290956
53	0xbe01055b	-0.12599699
54	0xbe9811ae	-0.2970099
55	0xbf1ead5f	-0.61983293
56	0x3df43842	0.11924793
57	0x3e8157c6	0.25262278
58	0xbe859eb8	-0.26097655
59	0xbe37bfa4	-0.17944199
60	0xbda74771	-0.08167923
61	0xbed07853	-0.407168
62	0x3e9a46cd	0.30132142
63	0xbd8a7445	-0.06760458
64	0xbf1bbc80	-0.60834503
65	0xbe65f207	-0.22455607
66	0xbd722734	-0.05911942
67	0xbef66590	-0.4812436
68	0x3bddb38b	0.006765788
69	0x3e0d0de6	0.13774833
70	0xbe81a0f8	-0.25318122
71	0xbe55fea4	-0.20897919
72	0xbe7a968a	-0.24471489
73	0xbe52b856	-0.20578131
74	0xbeff4e7e	-0.49864572
75	0xbe53daba	-0.20688906
76	0xbe874dae	-0.26426452
77	0xbe71caef	-0.2361257
78	0x3d736ae6	0.05942812
79	0xbe90751e	-0.28214353
80	0x3e0e52e2	0.13898805
81	0xbc51b5ff	-0.012799739
82	0xbeae5c66	-0.3405487
83	0xbe9c8a70	-0.3057437
84	0xbe2f3ecd	-0.171138
85	0x3bd06152	0.0063592577
86	0xbf03ef9e	-0.515375
87	0x3c0c1144	0.008549038
88	0xbe7f7870	-0.24948287
89	0xbea88d4d	-0.32920304
90	0xbccb7b07	-0.024838937
91	0xbe69c4a9	-0.22828926
92	0x3d74fcb0	0.059811294
93	0xbe17ac16	-0.1481174
94	0xbea60e61	-0.32432845
95	0xbe34083d	-0.17581268
96	0x3e9f1012	0.31066948
97	0xbe94c374	-0.2905537
98	0xbe8dde0d	-0.27708474
99	0x3d0ba058	0.034088463
100	0xbf06e03c	-0.52685905
101	0xbf0d0a90	-0.5509424
102	0xbe074410	-0.13209558
103	0xbd80ba1c	-0.062854975
104	0x3a44f821	0.0007513781
105	0xbf05a3bf	-0.5220298
106	0xbe958e5d	-0.29210177
107	0xbdff6e22	-0.12472178
108	0xbee04ef8	-0.43810248
109	0xbf57166f	-0.84018606
110	0x3e6d49fc	0.23172754
111	0xbe579fc8	-0.21057045
112	0xbe10efc5	-0.14153965
113	0xbe5fcf14	-0.21856338
114	0x3e6b1d3e	0.22960374
115	0x3e181774	0.14852697
116	0xbe8312ee	-0.2560038
117	0x3eb2f20e	0.34950298
118	0x3d86d1d1	0.06582988
119	0x3da46428	0.08026916
120	0xbf27c6f0	-0.6553793
121	0xbdc4b56f	-0.09604918
122	0x3ec074cc	0.3758911
123	0x3dc12a42	0.09431888
124	0xbf4309d1	-0.76186854
125	0x3e3b6e88	0.18303883
126	0x3e808a95	0.2510573
127	0xbf09fc98	-0.5390105
128	0x3e324df4	0.1741255
129	0xbf1e5fd6	-0.61864984
130	0xbdb21899	-0.08696098
131	0xbe0759d7	-0.13217865
132	0x3e81baec	0.25337923
133	0xbed2dc28	-0.4118359
134	0x3ba5732a	0.005049129
135	0x3e9f59bb	0.31123146
136	0xbe8ef915	-0.2792441
137	0xbd99c706	-0.07508664
138	0xbf4644bb	-0.77448624
139	0xbee76448	-0.45193696
140	0xbf60765a	-0.8768059
141	0xbe7a0ba1	-0.24418499
142	0xbdf87d6b	-0.121332966
143	0x3e85c353	0.26125583
144	0xbcbba972	-0.022907946
145	0x3e08229e	0.13294455
146	0x3d12eafe	0.035868637
147	0xbcebd7e4	-0.028789468
148	0x3dd3e27e	0.10345934
149	0xbe76621c	-0.24060863
150	0x3e481357	0.19538628
151	0x3d6fa6de	0.058508746
152	0xbddfd38d	-0.10929022
153	0xbef60ece	-0.4805817
154	0xbea39314	-0.3194815
155	0x3d0b5bd7	0.034023132
156	0xbdfef291	-0.124486096
157	0xbe81bcb7	-0.2533929
158	0xbdae40d0	-0.08508456
159	0x3e017d36	0.1264542
160	0xbe3a7823	-0.18209891
161	0xbf4ba0aa	-0.7954203
162	0xbf2b60b3	-0.66944426
163	0x3eade93f	0.33967015
164	0x3ceac922	0.02866036
165	0xbf270fbc	-0.65258384
166	0x3e578c61	0.21049644
167	0xbeb4b27c	-0.35292423
168	0xbe2f113e	-0.17096421
169	0xbe24bc2c	-0.16087407
170	0xbf5a5df3	-0.85299605
171	0x3ddb0d12	0.10695852
172	0xbec392f7	-0.38198063
173	0xbe56fa6b	-0.20993964
174	0xbe8724b4	-0.2639519
175	0xbefafe33	-0.49022064
176	0xbea57c86	-0.32321566
177	0x3eb155db	0.34635815
178	0x3e3e9f3e	0.18615434
179	0x3ea830f8	0.3284986
180	0xbf20a644	-0.627537
181	0xbe85876c	-0.2607988
182	0x3d8794e8	0.066201985
183	0x3d3baec1	0.045820955
184	0x3e249aac	0.16074628
185	0xbe3c021c	-0.1836018
186	0xbe677984	-0.22604948
187	0xbe239a1d	-0.15976758
188	0xbe96c323	-0.29445753
189	0xbf457194	-0.7712643
190	0x3e9558cc	0.2916931
191	0x3e7cc8ea	0.24686018
192	0xbee33de6	-0.44383162
193	0xbf066b60	-0.5250759
194	0xbdcb5554	-0.099283844
195	0xbe37a239	-0.17932977
196	0xbec8d031	-0.39221337
197	0xbd17024b	-0.03686742
198	0xbea62b9b	-0.32455143
199	0xbefe4cb1	-0.49667886
200	0xbf00c6af	-0.5030317
201	0x3d66953f	0.056294676
202	0xbcdc6251	-0.02690235
203	0xbd89bcba	-0.0672545
204	0xbefe586a	-0.4967683
205	0xbe2806ba	-0.16408816
206	0xbe4b4dd5	-0.1985391
207	0xbdbaabb3	-0.0911478
208	0x3db0d6bd	0.08634708
209	0xbecab81a	-0.39593583
210	0xbca894bc	-0.020578735
211	0xbec93fd8	-0.3930652
212	0xbde5f134	-0.112276465
213	0xbec1dd5b	-0.37864193
214	0xbe9a08de	-0.3008489
215	0xbbc342fb	-0.0059589124
216	0xbe279630	-0.16365886
217	0xbd1e6137	-0.03866693
218	0x3d1dbcb1	0.03851003
219	0x3e4f35f1	0.20235421
220	0x3d21a724	0.03946604
221	0xbdb29c47	-0.08721214
222	0xbe9204fb	-0.28519425
223	0x3b5d6419	0.0033781587
224	0xbe56e5b4	-0.20986062
225	0xbf40f331	-0.7537108
226	0xbf68f34e	-0.90996253
227	0x3e72f6d1	0.23726965
228	0x3e8534c0	0.26016808
229	0xbdba7c71	-0.091057666
230	0x3e865e5e	0.2624387
231	0xbea8eac0	-0.329916
232	0x3cc8de4e	0.024520066
233	0xbf48b410	-0.78399754
234	0xbed7f66d	-0.42180195
235	0xbe41d924	-0.18930489
236	0xbe913942	-0.28363997
237	0xbea29646	-0.31755275
238	0xbe828517	-0.25492164
239	0x3e30b29f	0.17255639
240	0x3e246a15	0.16056092
241	0xbe2830e8	-0.16424906
242	0xbdc3e218	-0.09564608
243	0x3d8f3221	0.06991983
244	0x3eaf10f3	0.3419262
245	0x3d178cb1	0.03699941
246	0x3e8b50d2	0.27210099
247	0x3e46f956	0.19431052
248	0xbec4467d	-0.38335028
249	0xbe552934	-0.20816499
250	0xbefc8e3a	-0.4932726
251	0x3db79e5a	0.0896575
252	0x3e604a0d	0.21903248
253	0xbf30b603	-0.6902773
254	0xbf187aef	-0.5956258
255	0x3d5a36a6	0.053274773
