SMSClient/app/src/main/assets/disease_model.tflite (tflite, 17108 bytes, 6 tensors)

sequential_1/dense_5/BiasAdd/ReadVariableOp f4 [2]
00000000: 5bb4 803b 2514 85bb
0.00392775 -0.0040612393

sequential_1/dense_4/BiasAdd/ReadVariableOp f4 [32]
00000000: 9ce8 073e 44d4 4e3c 0a17 9a3d ed6e 563d
00000010: 935e 733c 23f7 313e 9187 163e 2def 853d
00000020: 195c 143e 4e88 8a3c 438b aa3d 5b8c 833d
00000030: 4422 4dbc 662d 333e 248e 423d 6d81 d73d
00000040: 4c48 b43d b35e a13d ea2a 713d e993 043d
00000050: 9a7e b33d dea7 4fbd a1c6 153e c80d d53d
00000060: 206b b43d 759e aa3d 3999 1c3e a28d 173e
00000070: 22b3 8e3d 5e29 773d 45e9 fe3d 9cab 633d
0.13272327 0.01262385 0.075239256 0.05235188 0.014854091 0.17379431 0.14700152 0.0653976
0.14488257 0.016910698 0.08327343 0.06423255 -0.012520377 0.17497787 0.047498837 0.10522733
0.08802852 0.078793906 0.058878817 0.03236762 0.08764382 -0.0506972 0.14626552 0.10403019
0.08809495 0.083310045 0.15292825 0.14800122 0.069677606 0.060342185 0.124468364 0.05558358

sequential_1/dense_3/BiasAdd/ReadVariableOp f4 [64]
00000000: cbb0 5f3e 8c5d e73d a589 eb3d dead be3d
00000010: 8769 853d ead8 a13d fba4 613e 8393 983c
00000020: 02ac 143e 9ec5 383e ccec bd3d 084e 9d3d
00000030: e7b2 843d aeb9 083e c382 143e 3e11 083d
00000040: d17c 12bb 1337 ca3c 7dfd 023e 640d a63d
00000050: 6db0 05bd a380 5e3d 15ee 963d 023e 8e3c
00000060: f0c6 2b3e a391 0e3e 580c d43d 53e3 563c
00000070: c6b6 613d f48b c43d e49e 723d cbbc fd3d
00000080: 4351 d93d 7de3 373d d4e3 583c 15c0 cb3d
00000090: 4e91 05bd 31fe 5c3d abb3 29bd 4de8 9d3d
000000a0: d9ee 183e 322a 603d e326 4dbd a2f3 cabd
000000b0: de98 5b3d c7b8 243e 3ca2 a3bd e0b4 b53d
000000c0: 3076 73bd e24b 0d3e 0824 07bc 9178 503d
000000d0: de09 6c3e 02aa 283d 5b45 0d3e 1f13 9f3d
000000e0: b727 69bc 40cd b33d 4bc4 8b3d 2146 073c
000000f0: 58de 673d 4875 9ebd 7c9e c53c 3efd bfbd
0.21844785 0.112971395 0.11500863 0.09310506 0.06514268 0.07902701 0.22035591 0.018625027
0.14518741 0.18044135 0.09273681 0.07680899 0.064794354 0.13352081 0.14503007 0.03321957
-0.0022352228 0.024684465 0.1279201 0.08108023 -0.032638956 0.054321896 0.07369629 0.017363552
0.16775107 0.13922743 0.10353917 0.013115722 0.055105947 0.095970064 0.05923356 0.12389525
0.106112026 0.044894684 0.013237912 0.09948746 -0.032609276 0.053953353 -0.04143111 0.077103235
0.14934863 0.05472774 -0.050085913 -0.099097505 0.053612582 0.16086112 -0.07989928 0.0887239
-0.059438884 0.13798478 -0.008248337 0.05089623 0.23050639 0.041177757 0.13795988 0.07767319
-0.01423066 0.08779383 0.06824549 0.008256466 0.056608528 -0.077372134 0.024123423 -0.09374474

sequential_1/dense_3/MatMul f4 [64, 24]
00000000: 2bb9 0abe ec95 9b3e cfe7 25be 60a8 d23d
00000010: b4f5 753d ccef 023e a663 543e f2f5 443c
00000020: de81 b7bd 1d06 9a3d 06c7 e3be f120 0fbf
00000030: 6dda 97be 0786 53be 3d2d f4bd 27e0 723e
00000040: 6751 e93d 2d1f 2fbe bcd2 123b ebc9 e2be
00000050: b33c adbd 3fd8 06bc 381a 0bbe 0784 63bd
00000060: d8bf 763e 0873 46bd 148b 743e 3710 903d
00000070: f85b 8c3e 3949 273d 3e88 173d 9d7d bfbd
00000080: 4dd7 67be ca85 ca3d 19e2 4d3e a6d4 13be
00000090: 5adc 173e da3f 56be 6c6e 23be e398 1d3b
000000a0: bf40 053d 4f26 c33d fab2 39be 1d92 a1be
000000b0: 062d 613e a05e c7bd 1af4 1e3e 71ce e7bd
000000c0: 1385 00be b024 063e bb99 c1be d22a 1b3e
000000d0: c0e2 823c 8a02 b93c 6b26 c7bc 90c6 4a3e
000000e0: eae8 f5bc 63fa d33d 64d2 0fbe 199c 0dbe
000000f0: 1f06 92be 7722 3dbd 6d7d 4bbd ab60 9f3e
00000100: 9b9f 4dbe 394c b1be d385 b73d aae1 5ebe
00000110: 4ed1 003d 6d29 dcbe c91a 7fbe 93c8 56be
00000120: efcb 66bc 2f37 acbe a4b5 af3e f0a9 9bbd
00000130: 4497 3abe a775 6cbe b5bc 8abe 6d1e c43c
00000140: b0b3 c7be aab7 2bbe d895 0dbe cf80 6a3e
00000150: 9349 473e 4850 45be 00dc 67be c134 97be
00000160: 1b57 4fbe cb70 ef3d 9f56 aebe 8245 80bd
00000170: 718e 43bd 32ff 3ebe 837f 093e 9845 243d
00000180: 0140 08be feec c03d a6bb b53d e154 183d
00000190: 80fd c63d f89c 40be a607 53be 2d9a 6e3e
000001a0: 3c8b e33d e8b3 11be fdc2 393d 6166 343e
000001b0: 935b ad3c 9ba8 54be 8d16 78be 2bd1 a2bd
000001c0: 19ac fabd 0d65 9d3e 73cd 833e 27e1 0d3e
000001d0: 16db 153e 60b7 acba da55 583e a3e3 5cbe
000001e0: e753 2e3e e83f 2abe 4f29 893e 983c 5dbe
000001f0: ebc0 64be 4608 5fbe 36de 8abe ebd9 dbbd
00000200: efbe b1be 86e9 66bb 3104 893d 759b 7c3e
00000210: fd11 8abd 6b39 a93c d864 c43d 9c80 4ebe
00000220: 339f 30be 1a1b ea3c bf1e 02be 7406 bcbd
00000230: 8148 59be c01e 90bd 4ec4 293e c0db b8bc
00000240: ae5a 26bb 0ff5 303e f2b0 c1be f561 c93e
00000250: d37d 15ba 31f0 f73d 717e 6a3e fbd8 8fbe
00000260: 7014 80bb 3557 8fbe 0b2f 14be a5a3 99be
00000270: 887d 11bf dfcb 00bd 7a89 cebe a52a 64bc
00000280: 4dda 9abe d1fb e4bd 1984 023d d386 543e
00000290: a4d3 92bd 3533 b63d cf38 7cbe 268d e93d
000002a0: 4fe4 b53d 72a0 33bd 6faf 0a3d 4b00 3dbe
000002b0: d989 2dbe 0361 973c 5eca 053c 21ec 813d
000002c0: ebe2 bbbe d13b 703e 12bf 203d 9771 d03e
000002d0: 7607 b93e c6f5 c73d 1a5c f3bb 19d4 0bbe
000002e0: 4a53 a0be d058 58be b1df 723e 120f 8f3e
000002f0: 0f8e 953c ee6b 49be 44b7 943e 2889 b53c
00000300: 951d 3dbe 5c39 f23d 8245 7cbe d623 27bf
00000310: 080e e1bd c679 fc3b bba0 bb3d 5ff7 d03e
00000320: 449b 2ebe c9c5 62be a2f4 8ebd cdc9 bebd
00000330: 4f20 dfbb bc28 263e f698 af3e c918 a7bd
00000340: 541d 073e 702e 7fbe c661 97be 0666 473e
00000350: 3e93 9c3d fdec 4b3e 7932 9bbe 5330 d43d
00000360: b4ce f4bb 2795 96be d4cb cb3e f9d7 04be
00000370: 715e 953d 4eae 60be 9212 8ebe 0fc3 593e
00000380: 6076 c93c 2080 cfbe aaa8 2abe ba55 983d
00000390: 19dc 2ebe 726b 48be 0c08 c83d cd8f 5e3e
000003a0: f41d 57bd ace0 753e 86a8 3e3e c8ff 323e
000003b0: 1052 4fbe 125b 7f3e aae6 a8be 249f 0c3e
000003c0: c4c0 073e 45eb a6bd c7e2 d53a 15d7 c73d
000003d0: 4bf6 cfbe a18d 88bc 737f bcbb 67b4 a83d
000003e0: f13c 993e ce5c 89bd 352f 383e aa2a aabe
000003f0: 9b36 a8bd b1f2 babe 9572 bf3e c5d4 98bd
-0.13547198 0.3038782 -0.16201709 0.10286021 0.060048774 0.12786788 0.20741138 0.012021529
-0.08960317 0.07520697 -0.4448778 -0.5590964 -0.29658833 -0.20656596 -0.11922691 0.2371832
0.113924794 -0.17101736 0.002240344 -0.44294676 -0.08458843 -0.008230268 -0.1358422 -0.055545833
0.2409662 -0.048449546 0.23881179 0.07034343 0.27413917 0.040841315 0.036995165 -0.09350131
-0.22640724 0.098887995 0.2010578 -0.14436588 0.14830151 -0.20922795 -0.15960091 0.0024047426
0.03253245 0.09528791 -0.1813468 -0.31556788 0.21989831 -0.09734845 0.15522805 -0.113186724
-0.12550764 0.13099933 -0.378126 0.15153053 0.015977263 0.022584219 -0.024310311 0.19802308
-0.030018289 0.10350492 -0.14045101 -0.13829078 -0.28520295 -0.046175446 -0.049680162 0.3112844
-0.20080416 -0.34628466 0.08961072 -0.21765772 0.03144961 -0.43000355 -0.24912561 -0.2097495
-0.0140867075 -0.33635852 0.34318268 -0.076007724 -0.18221766 -0.23091756 -0.27097097 0.02394029
-0.39004278 -0.16769281 -0.13826692 0.22900699 0.1946166 -0.19268906 -0.22642517 -0.29532436
-0.20248072 0.116914354 -0.34050462 -0.062632576 -0.047743265 -0.18652037 0.13427548 0.040105432
-0.13305666 0.09420203 0.08873682 0.03719032 0.0971632 -0.18809879 -0.20608386 0.23301001
0.11110541 -0.14228785 0.04535197 0.1761718 0.02116183 -0.20767443 -0.24227352 -0.07950052
-0.12239856 0.30741158 0.25742683 0.1385542 0.14634356 -0.0013177209 0.211265 -0.21571212
0.17024194 -0.16625941 0.26789328 -0.21605146 -0.22339217 -0.217805 -0.27122658 -0.10734924
-0.34715983 -0.0035234406 0.066902526 0.24668677 -0.06741712 0.020657262 0.09589547 -0.20166248
-0.1724823 0.028577376 -0.12707041 -0.09180918 -0.21219064 -0.07037115 0.1657879 -0.022565722
-0.002538364 0.17280982 -0.3783031 0.39332548 -0.0005702648 0.1210636 0.22899796 -0.2809523
-0.0039086863 -0.2799622 -0.1447107 -0.30007663 -0.5683217 -0.031444427 -0.4033926 -0.013926183
-0.30244675 -0.11180843 0.03186426 0.20754556 -0.071692735 0.08896486 -0.24631046 0.11403875
0.08881437 -0.043854184 0.033858713 -0.18457143 -0.16947116 0.018478876 0.008165924 0.06343866
-0.36696562 0.23460318 0.03924472 0.40711662 0.36138505 0.097636744 -0.007426751 -0.13655128
-0.31313545 -0.2112763 0.23718144 0.27941185 0.018256215 -0.19670078 0.2904607 0.022160128
-0.18468316 0.11827347 -0.2463589 -0.65289056 -0.109890044 0.007704946 0.09161516 0.4081373
-0.17051417 -0.22145762 -0.06980254 -0.09315834 -0.0068092714 0.16226476 0.34296387 -0.08159024
0.13194782 -0.24920058 -0.29566783 0.19472513 0.07645272 0.19914623 -0.30311945 0.103607796
-0.00747093 -0.2941067 0.39803946 -0.12973012 0.07293404 -0.21941492 -0.27748543 0.21265815
0.024592578 -0.4052744 -0.16665903 0.07438226 -0.17076148 -0.19572237 0.0976716 0.21734543
-0.0525188 0.24011487 0.18618974 0.17480385 -0.20246148 0.24937084 -0.32988483 0.13732582
0.13257128 -0.08150343 0.0016318195 0.097578205 -0.40617594 -0.016669096 -0.005752498 0.08237534
0.29929307 -0.06707154 0.17986758 -0.33235675 -0.0821354 -0.36513284 0.37392107 -0.074624576

sequential_1/dense_4/MatMul f4 [32, 64]
00000000: 0f73 103f b017 963e a112 7f3e beda 51be
00000010: 35a5 82bc 9a86 34be c156 b13e 42c3 003e
00000020: 1d27 fb3e 0b3f 59bd 2134 c13e 857a cf3e
00000030: ffef 83be 76c7 09be 8594 2c3e 9861 813e
00000040: eee6 133d f633 1cbe e7f5 3f3f 94ad 423e
00000050: 4fa8 fd3e b404 30bc 7df9 353e fe02 38be
00000060: 4865 273f c92d 94be 4f19 6c3e 9168 1b3e
00000070: 8b97 b5be cde7 1f3d 2288 5b3c 0a8d 6ebe
00000080: a420 203e 4ab8 4fbd ccc4 efbd be91 e3bd
00000090: acf5 993e fa26 b63e 253f 85be cf90 c4bd
000000a0: 121c 98bc b90b 573e be9d ac3e addd 67bd
000000b0: 3a5b 053d 41c6 913e 702e d9be 7199 e43d
000000c0: 5a49 32bc 0c6b 3cbe aa4f a1be e4fb 103e
000000d0: 1337 ed3e c0e1 2cbd e763 743e 3be7 debe
000000e0: 01e8 8c3d 4ff3 103f fab9 ccbe 6b8b a83e
000000f0: 9c8e f13e 4de4 93be 9fa3 0dbc f1df afbd
00000100: 59a3 b03d c5fe e23d 1f78 64be 42ff 553e
00000110: 5dd6 a6be fb77 8e3e 9445 a6be 5440 913d
00000120: f119 acbc 4f5f 71bd 6516 0cbe a155 193e
00000130: e169 a43b 03bf 3cbd e907 703e 0039 2dbd
00000140: c27f ad3e 715e 49be cb13 373c f922 58be
00000150: cc65 68bc d83d cc3d d558 003d 33b8 193e
00000160: 459d 013e 5bb7 cd3e bdf8 26be b039 063e
00000170: 4a3e 643e c4bb 633e a8fd 1e3a 29fd 603e
00000180: 637d 34be e76e 583e 3894 b0bd 668b 74be
00000190: 3d7d 17be 28da a3bd afd6 88be 2230 913e
000001a0: 5dae 1d3f b604 c9bc d814 bbbb 37f6 bbbd
000001b0: eda7 6ebe 9a7b f5bd bca0 42be 4ea3 90be
000001c0: 24f4 2b3e 3533 733e 15c3 a13d 5197 e73d
000001d0: 84d4 15be 1c47 223e 8386 fa3d 0f68 913e
000001e0: 4ab6 8cbe 0add 1cbb ce43 8a3e 356c 2f3e
000001f0: 08bf afbd 4cc8 193e 559b cd3c 5d24 a2bd
00000200: e5aa d0be 8b0d 18be 359d aebd 5e55 c13e
00000210: e5cc 373e 3e2d 993e cea7 28be 8fc8 633e
00000220: 6da7 9fbd 8aae af3c 7328 e23d 9090 f1bd
00000230: d1fd a33c 30a9 37be e994 cb3d b152 e2be
00000240: 61ce ac3e 4c52 6d3d 8302 11bf 1be0 ffbd
00000250: 764a 8cbe 88b1 e9bd 0e75 3a3d 1590 05be
00000260: 0cd9 08bf 3b54 193f 0418 8c3e 5f6b c6bd
00000270: 98d8 f63e 36c2 a0bd 6a67 7cbc 2326 0e3f
00000280: 1590 ce3d 3c4c e23e 0e8b 1f3d ef64 31bc
00000290: 3756 09be 00e5 bcbe d4a7 8a3e 4dba 1fbb
000002a0: e95c 983e 4cc9 ebbe 7adc b6be 65f3 f13c
000002b0: 617b bfbe 5160 aebd 6210 fc3e 443e a4bd
000002c0: 4005 8e3d 1e73 813e 3dd7 e93d 0c4a cbbd
000002d0: c979 3fbe 6600 a53d 3119 d4be 883f f43e
000002e0: f362 f83d 571e e1be 3127 f53e 5dc3 85bd
000002f0: f07d 643b 6303 5bbe bf07 083f d39a 853e
00000300: 3011 52be e88b 093e 6cf9 97be 40bc 723e
00000310: eb0d 3e3e 5cce 8c3d a8f2 d6be 5f0a 3c3e
00000320: 07ed 92be e107 ba3d 8212 d7bd c8ab 09be
00000330: 1437 903e 6212 853e 7edd b23d e626 a3be
00000340: 8b89 0f3e 272b b93e af5d 10bf 74a8 23bd
00000350: 0f3a 8fbe 8e94 ebbd bf33 843e f0d3 87be
00000360: eaeb 8cbe 564c b23e 7838 833d 19d0 17bd
00000370: e4c2 133f aaba b6bd 43b6 b53d 2142 c83e
00000380: ba39 1a3e 857c b73d 19bb d5bc 3407 fabd
00000390: bb01 bfbd 153b cfbe 9835 7dbc fe1b bd3d
000003a0: fc9d 133f c927 d4be 90e4 17be 11e1 bb3d
000003b0: 53e6 bebe 5620 97be 5153 e93e fbfa 2abc
000003c0: cf5c 49bc 3fe1 203e 63fc eb3e fd64 e03d
000003d0: 8c91 f1be db29 173e 4cfe 8abe 3a4e 713e
000003e0: c2b6 763a 8842 4ebe a566 663e c3fb 18be
000003f0: 8a83 4bbe f65c 77bc f6da 203f 0fd8 6b3d
0.56425565 0.29314947 0.2490945 -0.204936 -0.015947917 -0.17629471 0.346365 0.12574485
0.4905328 -0.053038638 0.37735084 0.40523162 -0.2576904 -0.13454995 0.1685353 0.2526977
0.036108904 -0.15254197 0.7498459 0.19011527 0.49542472 -0.010743309 0.17770953 -0.17969891
0.6538892 -0.2894118 0.2305653 0.15176608 -0.3546718 0.03903942 0.013399156 -0.2329599
0.15637451 -0.05071286 -0.11707458 -0.111117825 0.30070245 0.35576612 -0.26024738 -0.095979325
-0.018568072 0.21000566 0.33714098 -0.05660789 0.032557704 0.28471568 -0.42418242 0.11162079
-0.010881746 -0.1840021 -0.3150609 0.14158589 0.4633108 -0.04220748 0.23866235 -0.4353579
0.06880189 0.5662126 -0.3998564 0.32918867 0.47179115 -0.28885117 -0.008644967 -0.08587635
0.08624906 0.1108375 -0.22311448 0.20898154 -0.3258542 0.27825913 -0.3247496 0.07092348
-0.021008464 -0.058928784 -0.13680418 0.14974071 0.0050175046 -0.0460806 0.23440517 -0.042290688
0.33886534 -0.19664933 0.011174153 -0.21107091 -0.0141844265 0.09972733 0.031334717 0.15011673
0.1265765 0.40178952 -0.16305824 0.13107944 0.22289386 0.22239596 0.00060650194 0.21971573
-0.17625956 0.21136056 -0.086220205 -0.23881301 -0.14793868 -0.080005944 -0.2672629 0.28357035
0.6159418 -0.02453838 -0.005709272 -0.09177821 -0.23306246 -0.11986466 -0.19006628 -0.28249592
0.16792351 0.23750003 0.07898537 0.11308158 -0.1463185 0.15847439 0.12232687 0.28399703
-0.27482826 -0.002393546 0.27004856 0.17131121 -0.08581358 0.15017813 0.025098482 -0.07917092
-0.40755382 -0.14848916 -0.085260786 0.37760442 0.17949255 0.2991733 -0.16470262 0.22244476
-0.07795606 0.021445531 0.11042871 -0.11795151 0.02001849 -0.17935634 0.09940512 -0.44203714
0.33751205 0.057939813 -0.5664446 -0.124939166 -0.2740056 -0.114108145 0.04552179 -0.13043244
-0.5345619 0.5989415 0.27362072 -0.09688448 0.48212123 -0.07849543 -0.015405515 0.5552694
0.10086075 0.44198787 0.038950972 -0.010827287 -0.13411795 -0.36893463 0.27081168 -0.0024372519
0.29758385 -0.46052015 -0.35715085 0.029535005 -0.37398818 -0.08514465 0.4923125 -0.08019689
0.06934595 0.2528314 0.114180066 -0.09926233 -0.18698801 0.080567166 -0.4142547 0.4770472
0.12128248 -0.4396846 0.47881463 -0.06531403 0.0034865104 -0.2138801 0.5313682 0.26094684
-0.20514369 0.13432276 -0.2968248 0.23704624 0.18559997 0.068752974 -0.41982007 0.18363331
-0.28696463 0.09083534 -0.10501577 -0.13444436 0.2816702 0.25990587 0.087336525 -0.31865615
0.14017312 0.36165735 -0.5639295 -0.03995557 -0.27973983 -0.11502944 0.2582073 -0.26528883
-0.27523738 0.34823865 0.06407255 -0.03706369 0.57719254 -0.08922322 0.08872654 0.39112952
0.15061083 0.08959297 -0.026090192 -0.12208405 -0.09326502 -0.40474764 -0.015454672 0.09233855
0.5766294 -0.41436604 -0.14833283 0.091737874 -0.37285098 -0.29516858 0.45571378 -0.010435815
-0.012290194 0.15710925 0.46090993 0.10956762 -0.47181356 0.1476206 -0.27147138 0.23564997
0.00094113883 -0.20142567 0.22500093 -0.1493979 -0.19874397 -0.015097847 0.6283411 0.057579096

sequential_1/dense_5/MatMul f4 [2, 32]
00000000: 9655 2dbf ac8c f03e 473f 233f dd2a cf3e
00000010: bbb6 083e e916 aebf fc6b cdbe c1db 88be
00000020: 7850 c13e 5e12 24bf bb28 c43e 4d64 393f
00000030: 397a 8b3e 81a3 773f 0111 0c3e 7fb8 dabe
00000040: 9ee8 063f 3f14 04bf c2b7 f53e 154a 08bf
00000050: 8884 c8be adc1 1d3e 27f8 603f dbad ecbe
00000060: 9f0b 2bbf 0bb3 253f 5f7b 86bf ad40 7d3f
00000070: ff5b 92be 5adf f73e da3e 0d3f 2333 d1be
00000080: f70a 203f 66ab c3be bfab acbe f314 f8be
00000090: d5ef b1be bded 843f 4c8f 8e3f 67c1 f53e
000000a0: d409 45bf f52b 803e 28f9 a0bd d7c3 1bbf
000000b0: a7da e9be a666 aabf 741f 1dbf ba9d 0b3f
000000c0: 5a63 13bf a6fc e13e 0152 1abf 3dab ad3e
000000d0: caa2 413f 85e3 ccbb dfc9 4fbf 369d 1f3f
000000e0: e6fb bc3e 3eba 5bbf 5f3e 523f c8da a6be
000000f0: bdf8 6c3e 0199 0fbf 3bf2 31bf 4a7b 9c3e
-0.6770872 0.46982324 0.6376843 0.4046239 0.13350956 -1.3600742 -0.40121448 -0.2673016
0.37756705 -0.64090526 0.38312325 0.7241867 0.27241686 0.9673386 0.13678361 -0.42718884
0.52698696 -0.51593393 0.4799176 -0.5323804 -0.39163613 0.15405913 0.8787865 -0.4622639
-0.6681461 0.6472632 -1.05064 0.9892681 -0.28585812 0.4841259 0.5517403 -0.40859327
0.6251673 -0.38216704 -0.33724782 -0.48453483 -0.3475329 1.0385052 1.1137481 0.47999117
-0.7696812 0.25033537 -0.07860023 -0.608457 -0.4567463 -1.3312576 -0.6137612 0.54537547
-0.57573473 0.44138068 -0.6028138 0.33919707 0.7563902 -0.0062527084 -0.81167406 0.6234926
0.36910933 -0.8583106 0.8212642 -0.32588792 0.23141761 -0.5609284 -0.6951024 0.30562812
